assignment1/python/weights.npz (npz, 135162 bytes, 2 tensors)

arr_0 f4 [256, 128]
00000000: 3e5a 38ba ce0e be3b 83dc 533b c426 863a
00000010: 51ef 84bb b4fc 74bb 8222 93bb 52f7 803b
00000020: 6c8e db3a ddef 1b3b 8a75 c0bb 22ef 9d3b
00000030: 4700 853b 3f7b 46bb 7f59 46bb 2044 52bb
00000040: 3384 16bb bfb3 243a ccee d2b9 abb6 eeba
00000050: dd11 923a 9909 84bb 78b6 13bb cc4f 24ba
00000060: 50bf 4038 8e95 623b 8141 40bb cb48 5b3a
00000070: 5da8 ff3a 588b 8fbb ce1c 7b3a 7965 74bb
00000080: 7656 acbb a1da 9c3b bd19 ac3b e6f2 823b
00000090: 9e2a e0ba 3513 87bb aaf3 f73a a768 d1b9
000000a0: 90b1 75bb 5906 3eb9 2d75 9dbb 8e5a 873b
000000b0: 75e2 42bb b043 de3a 93ae 00bb 1d8d be38
000000c0: b2ff 1a3a 8664 6dbb 3bd1 b53b 742e 733b
000000d0: 73be 993b 656b 903b 05ae 6a3a 717d a23b
000000e0: 8632 97bb 7f7e 50bb 8bba a1bb 6738 d3ba
000000f0: d298 bfba b917 14bb 88b1 673b c033 4eba
00000100: dc25 0dbb 3fc1 5a3a 751a 8dbb b43d 613b
00000110: 298a 91bb 136e ba3b 208e 693b 061c 63bb
00000120: 2f84 a2bb 806c 8e3b 9146 2d3b 9ff7 303b
00000130: 67e1 2d3b 09b8 88bb 034a c7ba 6760 96bb
00000140: 0fc2 853b 5284 ab3a d105 e4ba efe2 86bb
00000150: 8895 1cbb 6c53 0dbb 35de 4b3b 1df7 b13a
00000160: e0e1 a23b de5b e7b9 e3cc 86bb c047 3e3b
00000170: 4c04 433b 5780 7a3a 9a25 613b dbe2 093a
00000180: 1e75 0b3a 73fb 4fb9 d0b5 bbbb db70 97bb
00000190: 9d46 a5bb 9919 aa3a ba8d fbba aa4f c139
000001a0: 7cf1 953b 6f54 13bb 8d6e 90ba daf9 4b3b
000001b0: d5ba 1fbb 3f2b a9bb 1ea8 0abb 19b5 76bb
000001c0: d97b a13b bb54 823b 63cc 183b 2f2d 8a3b
000001d0: dae1 5a3b f3ac 6ebb 2660 9c3b 0b67 3e3a
000001e0: 40a5 6c3b d556 893b e4aa e1ba caa6 87bb
000001f0: 2b63 4abb f456 30b9 7015 823b 73c3 913b
00000200: d624 9cbb a117 763a d863 7fb9 7e93 4dbb
00000210: 1476 92bb f5d0 e2ba d632 ad3b 0034 07bb
00000220: 0b90 483a 1e21 163b 7084 08bb 0444 9e3b
00000230: 6611 b43b e9eb 29bb b748 f039 f69f f2ba
00000240: 1b8f 24bb 2732 9cbb e2c9 ca3a 4958 063a
00000250: 5710 a7bb 3754 25bb 2c3a 973b fce2 04bb
00000260: 8353 5ebb 9795 6939 1d6d bc3b 2c3d 0ebb
00000270: 2885 393b 9992 673b 4da4 4fbb 206a 1f3b
00000280: 1fef faba 9df9 a83a 9478 cf3a add4 803a
00000290: eea5 85bb bef9 833b 713e 0bbb 5c1a 52bb
000002a0: 31f3 98bb 8ab7 653a b799 163b 05d9 bbbb
000002b0: 994b 36b9 df95 4cbb f589 e13a 060b 74bb
000002c0: 292e 0f3b 904c b6ba 8d50 a93b 3682 5abb
000002d0: 51a5 fbba f675 8abb 6ca5 933b a556 923b
000002e0: aeaf 33bb 543f ff3a 7886 6b3b 04d4 783a
000002f0: 55dd c838 a913 25bb 5a7b 96bb b2f7 a93b
00000300: 957a 9b3b e343 f03a 66c4 0abb a32c d0ba
00000310: d296 343b 80ee 993b 3f3d 9e3b 93da 413b
00000320: cbd7 073b e7b9 74bb f26f 5abb f0dd 953b
00000330: c431 5a3a 243a a0bb a3fb 8ebb 2bb3 bf3a
00000340: 5436 afbb f053 7abb 9cdb 2e3a ec33 393b
00000350: b41a a93a 3c65 56bb d03b 3f3b cf5b 49bb
00000360: 6b0f a2ba 83aa 293b 055b e43a 0e5e 903b
00000370: 7931 f53a 2e1f 873a 4aa5 84bb b05d 63ba
00000380: e424 17bb d2ea 11bb 535a 9b3b cb96 c0ba
00000390: 9d9f 923b 886e a73a f120 5e3b bdf0 9e39
000003a0: dfcc 753a 7bdb e339 60fe 63bb 7e02 343b
000003b0: 953d f4ba a337 bcbb 70d3 ed3a d23d 6bbb
000003c0: 3161 a53b cb1a b73b 085e b23b 74cc b1ba
000003d0: 7bb3 afbb 9038 953b e9ea bbb9 c47e b23b
000003e0: c5dd ae3b 7b7c 733b 78e2 03bb a74b 90ba
000003f0: bb8e 7b3b 219d b5ba 344f 4fbb 47f3 8e3a
-0.000703249 0.0058001047 0.003232748 0.0010234942 -0.004056849 -0.0037382068 -0.0044901976 0.003935733
0.0016750819 0.0023794093 -0.0058733867 0.0048197666 0.004058871 -0.0030285863 -0.0030265746 -0.0032084063
-0.002296698 0.0006282888 -0.0004023224 -0.0018212398 0.001114424 -0.0040294644 -0.002253918 -0.0006267994
4.595454e-05 0.0034574005 -0.0029335918 0.0008365034 0.0019505132 -0.0043806247 0.00095791824 -0.0037291928
-0.0052593304 0.004786805 0.0052520917 0.003996241 -0.0017102545 -0.0041221627 0.0018917222 -0.00039941558
-0.0037489869 -0.00018122177 -0.004805228 0.004130668 -0.002973703 0.0016957428 -0.0019635304 9.0861904e-05
0.00059127354 -0.0036223247 0.005548624 0.0037106546 0.004691893 0.0044073337 0.00089523225 0.0049588014
-0.004614177 -0.0031813679 -0.0049355677 -0.0016114832 -0.0014617688 -0.0022597148 0.003535362 -0.0007865988
-0.0021537459 0.0008344836 -0.0043061324 0.0034369053 -0.004441519 0.0056893914 0.0035637692 -0.0034654154
-0.004959605 0.0043464303 0.0026439766 0.0027003062 0.0026532055 -0.0041723293 -0.0015204552 -0.004589129
0.0040819715 0.0013085699 -0.0017396753 -0.004116408 -0.0023892839 -0.0021564616 0.0031107788 0.0013577674
0.004970774 -0.000441282 -0.00411378 0.0029034466 0.00297572 0.00095558673 0.0034354688 0.00052599394
0.0005319881 -0.0001983473 -0.005728461 -0.0046216077 -0.005043818 0.0012977599 -0.0019192018 0.00036871183
0.0045759063 -0.0022480746 -0.0011019275 0.0031124265 -0.0024372835 -0.005162626 -0.0021157335 -0.0037644564
0.004928094 0.003977386 0.0023315183 0.004216812 0.0033398778 -0.0036419004 0.004772204 0.00072632794
0.003610924 0.0041912594 -0.0017217067 -0.004139756 -0.0030881863 -0.0001681706 0.0039698407 0.004448348
-0.0047651334 0.0009387676 -0.0002435589 -0.003136843 -0.0044696424 -0.0017304706 0.005285601 -0.002063036
0.00076508586 0.0022907923 -0.0020830892 0.0048298854 0.005495238 -0.0025927967 0.00045830544 -0.0018510807
-0.0025109712 -0.004766721 0.0015471543 0.000512485 -0.0050983834 -0.0025227198 0.004615089 -0.0020276895
-0.0033924289 0.00022276338 0.005750312 -0.0021703942 0.0028308127 0.0035335182 -0.0031683624 0.002432473
-0.001914475 0.0012891773 0.0015828782 0.0009829007 -0.0040786183 0.0040275743 -0.0021246935 -0.0032059168
-0.0046676625 0.0008763006 0.0022979805 -0.005732658 -0.00017385035 -0.003121726 0.0017207252 -0.0037238016
0.0021847582 -0.0013908315 0.005167073 -0.0033341772 -0.0019199048 -0.004225488 0.004505804 0.0044658952
-0.0027417946 0.0019473829 0.0035938304 0.0009492042 9.5779695e-05 -0.002518872 -0.0045923414 0.0051869983
0.0047448375 0.0018330779 -0.0021174191 -0.0015882443 0.0027555716 0.004697621 0.0048290784 0.0029579743
0.0020727988 -0.0037342252 -0.0033330885 0.004573576 0.00083234557 -0.0048897434 -0.0043634935 0.001462554
-0.0053470526 -0.0038197003 0.00066702976 0.0028259708 0.0012901635 -0.003271415 0.0029179938 -0.0030724888
-0.0012364214 0.0025888986 0.0017422145 0.0044057434 0.0018706761 0.0010308975 -0.0040480243 -0.00086733233
-0.002306276 -0.0022265208 0.004740992 -0.0014693377 0.004474594 0.001277403 0.0033894146 0.00030315472
0.00093765365 0.0004346034 -0.003478907 0.0027467306 -0.0018634076 -0.005743937 0.0018144678 -0.0035895002
0.0050469865 0.005587911 0.0054433383 -0.001356496 -0.005361972 0.004553862 -0.0003584244 0.0054472405
0.0053364956 0.0037153054 -0.0020124 -0.0011008874 0.0038384635 -0.0013856032 -0.0031632902 0.0010906243

arr_1 f4 [128, 7]
00000000: e9ab 793d 9ec8 6a3d 09ab 443d 4910 573d
00000010: f673 363c a3d9 a03d b273 903d 98fb 393d
00000020: b0d6 743d 8079 043d ea96 ff3c e607 7f3d
00000030: c050 223d a206 3c3d 3b49 d43c 3baa 3f3d
00000040: e9e1 4a3d 7673 4d3d 84cd 1c3d db30 1c3d
00000050: 1b0f 5f3d 9cbf 003d ff15 f8bc 0b64 abbc
00000060: 3f20 c0bc 6442 023d 0a24 393c c0c1 f63c
00000070: 4632 b13c 5a29 423c 20a2 2c3d a92c 66bc
00000080: 7052 833b 795f c23c 87f4 cdbb e9c6 d13c
00000090: f0d4 1e3c bff7 6b3c 871a fe3c 92e3 693d
000000a0: 6f5a f73c f2c6 0d3d 48f7 b63b 5d85 2b3d
000000b0: cf2c 2e3d cd45 883d f9b1 703d bc6b 193d
000000c0: 02c6 aa3c 3bd6 97bc c26f 0b3d 1c33 7f3c
000000d0: 48a6 e9bc 787b a9bc f57b 08ba 1175 a0bc
000000e0: 7ef0 603d fbdd 2f3d 281d 2e3d 965d 223d
000000f0: 84f6 ac3c bb45 6c3d 8e1a 743d ff2d bf3c
00000100: ea98 083d 6207 633d 3140 81bb a30c 1d3d
00000110: b771 223d a451 6b3d 5ca4 e3bc 35a8 673c
00000120: 1319 bbbc 70fc dcbc b16e 983c 8e51 233c
00000130: 9581 d83c c25a 183c 250a 453c a893 ac3c
00000140: e74b b9bb 0e13 cabc 671a 5bbc 4573 5cbc
00000150: f16f c33c feb3 8a3d 891b 643d 9e13 923d
00000160: 9f05 913d d80c 423d 6d13 dc3c cc43 1f3d
00000170: a347 823d 61dd 073d 4971 2e3d c83f 573c
00000180: 8373 3e3d 0bcc 193d 0dcf c83c f798 823d
00000190: a972 ab3b 067b 963d f067 913b 50c9 a63d
000001a0: 2a26 453d f00c fd3c d67d 1cbc 8263 a33c
000001b0: f754 483d f4ee 8abc 10fb b2bc e37b f8bb
000001c0: 0e35 95bc 5c21 bfbc 3e82 803c 0f63 8cbc
000001d0: a7f6 703c 909a c93c ce59 253c 0984 133c
000001e0: 275f 2e3d 1ad4 e13c 4231 fc3c 6d0a cd3c
000001f0: efbd a43d 02c4 7a3d 960c 66bc 7472 f43c
00000200: 9519 053c 52d4 943d 1daa 883d ff2a 483c
00000210: eab6 983c d7d9 0a3d 89d3 033d 1f47 0b3c
00000220: 90fb 453d 5bcb a93c 964c 683d f37f 003d
00000230: 0cbc 373d 4c4b 443d 8074 003d cd2b 543d
00000240: 270b d63c b1c9 85bc 288c 0abc 777b f6bb
00000250: f833 a2bc ae31 1b3d 9bc6 6cbb 1c23 6dbc
00000260: 4393 843d 8a8a 393d 3c86 5d3c 1ad9 0fbc
00000270: 6def 48bc e5b7 a53c 5f6f 643d 95b4 56bc
00000280: 0389 083d 15ef 803d c8fa 343d 303c e73c
00000290: c552 5a3d 8b93 663d aaa8 5b3d cc71 873d
000002a0: 4d4c 123d 0031 763d c0ee 853d 3110 2d3d
000002b0: dd3d 363d 2619 723d 01e1 823d a503 623d
000002c0: a916 6ebc 5026 403d 9a29 663d 995c 493d
000002d0: 44b1 803d 6657 3abc aef7 fc3c ec0d 733d
000002e0: c298 833d ac9b c53c d64d 2f3d f2bc 933d
000002f0: e8cf 7d3d fb68 2e3d fa40 c13b 09fd 4c3d
00000300: 9745 773d 4b11 563d fd42 8e3d 2361 253d
00000310: 1b98 873d 51e4 5e3d 8c4e 1f3d 44db 8d3d
00000320: 6d36 813d 6a2f 903d b200 413d a758 063d
00000330: 2dad 803c 209b cb3b 97fb 093d 036c 223d
00000340: 4de3 8d3c 46dc 8a3d d9b2 173d bad5 c03c
00000350: 7acc ce3c e1a8 99bc cc42 793d 86e3 d33c
00000360: 02cd 553d f683 3e3c 82f9 083c b6a6 bb3b
00000370: 5161 9dbc a4a4 35bc 1dd6 053b 0eca 9d3c
00000380: 63c1 9bb9 7005 8cbc 9c5b c3bc 4a15 533c
00000390: ca44 ceba 9c4c c9bc d10a 3e3c 8b59 7abc
000003a0: 3896 563b c441 18bc fa78 fc3c c8a7 6fbc
000003b0: 3e5b a1bb 12f7 fa3c fad5 b83c 887c 433d
000003c0: f3b0 bb3c e83c 843c 8851 3c3d fa03 a33d
000003d0: f9c1 2b3d 11b7 213d 7f47 213d f405 a93c
000003e0: b70e 273d d667 2d3c 083c e63c 4304 f33c
000003f0: c6a1 713d a385 e43c 7ca5 343d e15f bc3c
0.060954962 0.05732023 0.048014674 0.052505765 0.011136046 0.07854011 0.07053317 0.045405954
0.059775054 0.032342434 0.031199891 0.062263392 0.03962779 0.045904763 0.025913825 0.046793204
0.04953185 0.05015894 0.038281932 0.03813253 0.054457765 0.031432733 -0.030283926 -0.020921728
-0.023452876 0.031801596 0.011300096 0.030121684 0.021630418 0.011850679 0.042146802 -0.014048734
0.00400763 0.023727166 -0.0062852534 0.025607543 0.009694323 0.014402329 0.031018509 0.057101794
0.03019449 0.034613557 0.0055836774 0.041875232 0.0425232 0.066539384 0.058763478 0.03745626
0.02084637 -0.01853477 0.034042127 0.01557615 -0.028521672 -0.020688757 -0.00052064593 -0.019587072
0.05491685 0.042936306 0.042508274 0.03964003 0.021113642 0.057683688 0.059595637 0.023337362
0.033348955 0.055426963 -0.00394442 0.03834213 0.03965923 0.057450905 -0.027788334 0.014139225
-0.022839105 -0.02697584 0.01860747 0.009968175 0.026428977 0.009298982 0.012026344 0.021066502
-0.0056548 -0.02466729 -0.013372994 -0.013455217 0.023857089 0.06772612 0.055690322 0.07132648
0.0708115 0.04737553 0.026864732 0.038883016 0.0636132 0.033170108 0.042588506 0.013137765
0.04649688 0.037548106 0.024512792 0.06376832 0.0052321744 0.073476836 0.004437439 0.08143866
0.0481321 0.030889958 -0.009551486 0.01994491 0.048909154 -0.016959645 -0.021848232 -0.007583128
-0.018213775 -0.023331337 0.015687104 -0.017137079 0.014707244 0.024609834 0.010092212 0.009003648
0.042571213 0.027566958 0.030785207 0.025029385 0.080440395 0.061222084 -0.014041087 0.029839732
0.008123775 0.072670594 0.066730715 0.012217282 0.018641908 0.033899155 0.032184158 0.008500843
0.04833561 0.02072685 0.056713663 0.031372022 0.04485707 0.04792337 0.031361103 0.051799584
0.026128365 -0.016331526 -0.008456267 -0.0075220424 -0.019800171 0.037889175 -0.003612912 -0.014473703
0.064734004 0.045298137 0.0135207735 -0.008779788 -0.012264115 0.02022929 0.055770274 -0.013104578
0.03333379 0.06295601 0.044184476 0.028226942 0.05330159 0.05629305 0.053627647 0.06613502
0.035717297 0.060105324 0.065396786 0.04225177 0.04449259 0.059106015 0.06390572 0.055179257
-0.01453177 0.046911538 0.056192018 0.049160574 0.06283811 -0.0113733765 0.030879822 0.05933945
0.064256206 0.024122082 0.04279884 0.07213773 0.061965853 0.042580586 0.0058976384 0.050046
0.0603691 0.052262586 0.06946371 0.04037584 0.06620809 0.05441696 0.038893268 0.06926587
0.06309209 0.070402935 0.047119804 0.03279939 0.015707577 0.0062135607 0.0336872 0.03965379
0.0173203 0.06780295 0.037035797 0.023539413 0.025243986 -0.018757286 0.060854718 0.025865328
0.052197464 0.011628142 0.008360269 0.0057266606 -0.019211443 -0.011086617 0.002042181 0.019261386
-0.00029707988 -0.017092437 -0.023847394 0.012883494 -0.0015737053 -0.024572663 0.0115992585 -0.015280138
0.0032743346 -0.0092930235 0.030819405 -0.0146274045 -0.004924207 0.03063539 0.02256297 0.047726184
0.022911524 0.016142324 0.04597619 0.07959743 0.041933034 0.039481226 0.039374825 0.020632721
0.040785518 0.010583838 0.028104797 0.029665118 0.05899217 0.027895754 0.04410313 0.022994937
