assignment1/weights.npz (npz, 135162 bytes, 2 tensors)

arr_0 f4 [256, 128]
-0.0007070259 0.0058108177 0.003225132 0.0010113866 -0.004037513 -0.0043672486 -0.0044948733 0.0039364537
0.0016674238 0.002356862 -0.00585026 0.004745797 0.0040790234 -0.0030213436 -0.0030532328 -0.0032357092
-0.0022812507 0.0006115315 -0.00035139843 -0.0019097547 0.0010946781 -0.003990305 -0.002287478 -0.00064968533
5.099356e-05 0.0034524547 -0.002925084 0.00082901516 0.0019451692 -0.004485182 0.0009809139 -0.0037534093
-0.0052812686 0.0047583007 0.0052637137 0.004000287 -0.0017106099 -0.004119589 0.0018908473 -0.0003706876
-0.003787614 -0.00018454094 -0.004785511 0.004135771 -0.002998055 0.001684398 -0.0019795815 0.00055165205
0.0005472252 -0.0036075504 0.005510946 0.0036875007 0.0046865605 0.0043887896 0.00089772046 0.004941117
-0.004629828 -0.0032114005 -0.0049447194 -0.0016186768 -0.0014704507 -0.0023012273 0.0035538983 -0.00092752435
-0.0021874325 0.00081799744 -0.0043453984 0.0033764706 -0.004443893 0.0056768586 0.0034499916 -0.0034467187
-0.0049573877 0.0043318314 0.0026361563 0.0027102632 0.0026229906 -0.0041949255 -0.0015183839 -0.003563227
0.004118042 0.0012936544 -0.0017635103 -0.004134539 -0.002499097 -0.002129238 0.0031213292 0.0013690214
0.004590661 -0.00042078257 -0.004109926 0.0028934996 0.0029833282 0.0008390259 0.0034245586 0.0005463871
0.00044576472 -0.00019619559 -0.005751011 -0.0046257954 -0.00504028 0.0012638457 -0.0019338432 0.00036265783
0.0046238867 -0.0022491652 -0.0011135227 0.0030982322 -0.0024614667 -0.005146689 -0.0021181053 -0.003759851
0.0049235476 0.0039718696 0.0023033568 0.004245156 0.0033586742 -0.0036334624 0.004784703 0.0007262499
0.0036071371 0.0041835597 -0.0017135412 -0.004167021 -0.0030662457 -0.00019474246 0.0039739003 0.0044488097
-0.004768879 0.0009492738 -0.00025118876 -0.0031489509 -0.004455263 -0.0023590557 0.005280946 -0.0020619147
0.0007573926 0.0022737377 -0.0020600453 0.004744542 0.00551538 -0.002585554 0.0004312606 -0.001872792
-0.0024955168 -0.0047812746 0.0015852442 0.0004223671 -0.0051469635 -0.0024721934 0.0045607574 -0.0020505907
-0.0033873972 0.00022361428 0.0057588024 -0.0021776739 0.002825402 0.0034139934 -0.0031602378 0.0024087431
-0.0019364833 0.0012606552 0.0015944556 0.0009812292 -0.0040788874 0.00403014 -0.0021255794 -0.0031740207
-0.004695324 0.0008729805 0.0023176647 -0.0057275193 -0.00019889219 -0.003133064 0.0017046622 -0.003270754
0.002140677 -0.0013761964 0.0051459707 -0.0033575038 -0.0019252434 -0.004244032 0.004508279 0.0044484055
-0.0027575502 0.0019164694 0.0035846871 0.0009353991 8.7096494e-05 -0.0025737444 -0.00457379 0.0050462405
0.004727504 0.0018162276 -0.0021565522 -0.0016405167 0.002753192 0.004685525 0.004712379 0.0029780816
0.0020750018 -0.0037490951 -0.0033410846 0.0045835273 0.00080231717 -0.004912422 -0.004366303 0.0025517754
-0.0053389706 -0.003836009 0.0006431562 0.0028080123 0.001282144 -0.0032441912 0.0029284712 -0.0030630105
-0.0016165524 0.0026092606 0.0017461267 0.004395766 0.0018917656 0.00091611274 -0.004058895 -0.0008469965
-0.0023965593 -0.0022244179 0.0047185505 -0.001473627 0.0044658883 0.0012400451 0.0033744166 0.00029709958
0.000989825 0.00042681283 -0.003490498 0.0027325363 -0.0018876127 -0.005728227 0.0018120989 -0.003584954
0.0050424403 0.005582455 0.0054148217 -0.0013209111 -0.005342744 0.004562313 -0.00034582787 0.0054471674
0.0053326827 0.003707608 -0.001991086 -0.0011281777 0.003849231 -0.001412899 -0.0031618478 0.0010911155
00000000: b457 39ba ac68 be3b bc5c 533b 8190 843a
00000010: 1d4d 84bb 231b 8fbb bb49 93bb 5efd 803b
00000020: 758d da3a 9575 1a3b 8ab3 bfbb a182 9b3b
00000030: 54a9 853b bc01 46bb bf18 48bb 310e 54bb
00000040: 0981 15bb 2f4f 203a e63b b8b9 bc50 faba
00000050: 4d7b 8f3a 1bc1 82bb 83e9 15bb a54f 2aba
00000060: ebe1 5538 9442 623b c4b2 3fbb 4452 593a
00000070: 0cf5 fe3a 6ff8 92bb 0292 803a c2fb 75bb
00000080: 7e0e adbb 85eb 9b3b 3b7b ac3b d714 833b
00000090: 8b36 e0ba 9efd 86bb 4fd6 f73a d958 c2b9
000000a0: 9e39 78bb 5581 41b9 c7cf 9cbb 5d85 873b
000000b0: 047b 44bb 05c7 dc3a debb 01bb be9c 103a
000000c0: a973 0f3a a76c 6cbb 2a95 b43b ffa9 713b
000000d0: b891 993b d6cf 8f3b 0055 6b3a 18e9 a13b
000000e0: d0b5 97bb 5c76 52bb 5007 a2bb c829 d4ba
000000f0: 23bc c0ba 30d0 16bb 85e8 683b 1b25 73ba
00000100: 075b 0fbb e16e 563a d863 8ebb c747 5d3b
00000110: 149e 91bb f104 ba3b 4119 623b 58e2 61bb
00000120: 9571 a2bb 09f2 8d3b 5dc3 2c3b ac9e 313b
00000130: 7be6 2b3b 9675 89bb 8204 c7ba 0785 69bb
00000140: a4f0 863b d78f a93a 9625 e7ba 077b 87bb
00000150: e4c7 23bb b08a 0bbb 378f 4c3b bc70 b33a
00000160: 416d 963b 7b9c dcb9 8fac 86bb dea0 3d3b
00000170: f183 433b 13f2 5b3a 8f6e 603b 6b3b 0f3a
00000180: 87b5 e939 dab9 4db9 fa72 bcbb fc93 97bb
00000190: ef28 a5bb a0a7 a53a 0379 fdba 1c23 be39
000001a0: f983 973b bb66 13bb 9ff3 91ba b60b 4b3b
000001b0: 8f50 21bb 8ea5 a8bb e9cf 0abb d567 76bb
000001c0: b655 a13b 7526 823b eaf3 163b f31a 8b3b
000001d0: 341d 5c3b 621f 6ebb ffc8 9c3b ce61 3e3a
000001e0: b865 6c3b 3e16 893b e798 e0ba 818b 88bb
000001f0: 11f3 48bb c833 4cb9 7e37 823b 52c7 913b
00000200: 4244 9cbb b0d8 783a fcb1 83b9 a15e 4ebb
00000210: 74fd 91bb 639a 1abb c90b ad3b 3021 07bb
00000220: c28b 463a fd02 153b d301 07bb 1a78 9b3b
00000230: 5cba b43b 6672 29bb d11a e239 7978 f5ba
00000240: d38b 23bb 3dac 9cbb f8c7 cf3a 2771 dd39
00000250: dca7 a8bb 8604 22bb 6872 953b 3463 06bb
00000260: 18ff 5dbb 007a 6a39 56b4 bc3b 4eb7 0ebb
00000270: 612a 393b 4ebd 5f3b fe1b 4fbb 01dc 1d3b
00000280: 99d1 fdba 923c a53a 0dfd d03a 979c 803a
00000290: 30a8 85bb 440f 843b 4e4d 0bbb 3b03 50bb
000002a0: 3cdb 99bb bbd8 643a f6e3 173b eaad bbbb
000002b0: b78d 50b9 1754 4dbb f96e df3a 255a 56bb
000002c0: 9a4a 0c3b 7d61 b4ba 889f a83b 9109 5cbb
000002d0: 7358 fcba 8511 8bbb 2fba 933b eec3 913b
000002e0: 04b8 34bb 0b32 fb3a 12ed 6a3b 9235 753a
000002f0: 93a7 b638 44ac 28bb bbdf 95bb ef5a a53b
00000300: 2ee9 9a3b 7c0e ee3a f154 0dbb 9b06 d7ba
00000310: e66e 343b 0889 993b 4d6a 9a3b eb2b 433b
00000320: c1fc 073b 61b3 75bb 19f6 5abb 6a31 963b
00000330: 9852 523a 62f8 a0bb 3413 8fbb b03b 273b
00000340: 88f2 aebb 8d65 7bbb 7b99 283a a106 383b
00000350: 9d0d a83a 7f9c 54bb 98eb 3f3b cabc 48bb
00000360: 7fe2 d3ba 2100 2b3b 4ade e43a 5c0a 903b
00000370: 1ff5 f73a 4927 703a 7b00 85bb f908 5eba
00000380: 980f 1dbb 8ac7 11bb 129e 9a3b b826 c1ba
00000390: 9656 923b 0289 a23a 5125 5d3b 08c4 9b39
000003a0: 04bd 813a d9c5 df39 d7c0 64bb 5a14 333b
000003b0: c669 f7ba dab3 bbbb f383 ed3a 8cf1 6abb
000003c0: 0e3b a53b 07ed b63b d16e b13b 6c22 adba
000003d0: 2f12 afbb 757f 953b 3b50 b5b9 277e b23b
000003e0: c9bd ae3b 57fb 723b e17c 02bb 5ddf 93ba
000003f0: 6143 7c3b 0631 b9ba 0137 4fbb c303 8f3a

arr_1 f4 [128, 7]
0.06352845 0.060707264 0.046415377 0.047343634 0.006592963 0.080836914 0.07370501 0.047918543
0.06328879 0.03148103 0.027506983 0.059068467 0.042219352 0.049143046 0.0284089 0.050070085
0.047914512 0.0450041 0.033734232 0.040338628 0.0575629 0.03107918 -0.029553825 -0.021070367
-0.023518682 0.03203553 0.011285732 0.030124476 0.02733945 0.021406839 0.046548728 -0.013280911
0.008830697 0.033869255 -0.0013857196 0.0035241488 -0.0155243445 -0.008926469 -0.0007821272 0.030575402
-0.008111788 0.0012328365 0.00815873 0.045264326 0.040879365 0.061383817 0.05421105 0.039750885
0.024016183 -0.018886069 0.03478606 0.015381676 -0.028613709 -0.020457055 -0.000534566 -0.01958442
0.05749943 0.046328172 0.04090342 0.034493398 0.016566481 0.05998522 0.06276603 0.025708126
0.037295915 0.054257978 -0.006756416 0.034446687 0.04224293 0.06028939 -0.02810675 0.014871594
-0.02300489 -0.027064277 0.018806962 0.009952479 0.02642629 0.016947672 0.023014765 0.027474565
-0.00071064045 -0.022097081 -0.007616574 -0.008289862 0.026434649 0.07112887 0.054083794 0.066152476
0.06626337 0.04967135 0.030034576 0.041456282 0.06703555 0.031575542 0.037409104 0.008596443
0.048792012 0.040718053 0.027092978 0.067169696 0.0036747404 0.06836284 -8.6080145e-05 0.08374768
0.051318303 0.03140944 -0.009165483 0.018320983 0.04623828 -0.018152898 -0.022268724 -0.0063552815
-0.018556764 -0.02259555 0.01559475 -0.017219068 0.014940935 0.024595726 0.0100936 0.011588835
0.046063844 0.02603207 0.026042964 0.020648632 0.0827497 0.06441811 -0.016134141 0.032606374
0.0045297137 0.067583404 0.061975937 0.013766765 0.019804643 0.035739925 0.035436764 0.0055499943
0.0443028 0.017116016 0.059154756 0.03433078 0.046881203 0.050844733 0.027364237 0.046189543
0.019495154 -0.016142016 -0.0076571014 -0.0067696087 -0.018456833 0.039087307 -0.004381494 -0.011628595
0.06747686 0.048015628 0.011608924 -0.008318181 -0.014204024 0.016174287 0.051196814 -0.012217278
0.034796555 0.06524843 0.04732273 0.026711654 0.048553124 0.05210222 0.055677824 0.069003716
0.03829386 0.06349744 0.06380047 0.037082873 0.03994622 0.061401147 0.06707612 0.057564966
-0.014420374 0.04490346 0.05060896 0.044719953 0.064969465 -0.0079813115 0.033459425 0.062737845
0.06266919 0.01894885 0.038261898 0.07443305 0.065136045 0.045136143 0.009289958 0.048420325
0.055196088 0.047697783 0.07173899 0.043530725 0.06850131 0.057532225 0.03722982 0.06420856
0.058642443 0.07234689 0.049943086 0.03030634 0.014755063 0.0013636537 0.025724785 0.03104634
0.0141322315 0.06331059 0.039706845 0.029694553 0.025338322 -0.018977169 0.056709778 0.030024303
0.05518033 0.011236113 0.00909911 0.0054628546 -0.019294601 -0.010870197 0.0020276955 0.019265478
-0.00065836706 -0.016361896 -0.023991294 0.012802272 -0.0013532947 -0.024591157 0.011599152 -0.015650151
0.004007062 -0.009471231 0.030728126 -0.01440359 -0.004938743 0.030638628 0.025152614 0.051126495
0.021334441 0.010973562 0.04142571 0.081892535 0.045102794 0.042779285 0.04336543 0.02015142
0.037836567 0.0090883 0.032747153 0.034592673 0.061575778 0.03127989 0.042523462 0.017855274
00000000: 341b 823d 2ea8 783d 0d1e 3e3d 66eb 413d
00000010: c809 d83b d38d a53d a7f2 963d 3c46 443d
00000020: 8e9d 813d 41f2 003d 5356 e13c c7f1 713d
00000030: 33ee 2c3d 384a 493d c8b9 e83c 4a16 4d3d
00000040: 0242 443d 3856 383d e82c 0a3d 1e3a 253d
00000050: 13c7 6b3d c499 fe3c dd1a f2bc c39b acbc
00000060: 40aa c0bc b037 033d cae7 383c 9bc7 f63c
00000070: fbf6 df3c 655d af3c e1a9 3e3d 2e98 59bc
00000080: a1ae 103c 7dba 0a3d 09a1 b5ba 68f5 663b
00000090: d259 7ebc 5340 12bc ab07 4dba 4479 fa3c
000000a0: 4ee7 04bc 2197 a13a 32ac 053c 1667 393d
000000b0: 1f71 273d 996d 7b3d 680c 5e3d d3d1 223d
000000c0: 96bd c43c f5b6 9abc d47b 0e3d 6d03 7c3c
000000d0: 4c67 eabc 8e95 a7bc 1e22 0cba 816f a0bc
000000e0: 8684 6b3d 9cc2 3d3d 588a 273d f348 0d3d
000000f0: 6eb6 873c 10b3 753d 7a8b 803d d999 d23c
00000100: 9ac3 183d 9d3d 5e3d ed64 ddbb f817 0d3d
00000110: ec06 2d3d 02f2 763d 2140 e6bc fca7 733c
00000120: c074 bcbc e7b5 ddbc 0f11 9a3c b90f 233c
00000130: f27b d83c d8d5 8a3c 7689 bc3c 5712 e13c
00000140: 464a 3aba f004 b5bc 7494 f9bb 34d2 07bc
00000150: 7a8d d83c 03ac 913d f886 5d3d f37a 873d
00000160: 17b5 873d 2f74 4b3d 120b f63c 10ce 293d
00000170: ef49 893d 5b55 013d 4a3a 193d 18d8 0c3c
00000180: 22da 473d f9c7 263d 18f2 dd3c 4490 893d
00000190: ead3 703b d101 8c3d ed85 b4b8 e783 ab3d
000001a0: 2433 523d 2fa7 003d d22a 16bc e315 963c
000001b0: 5a64 3d3d 63b5 94bc e66c b6bc f73f d0bb
000001c0: 5b04 98bc 4e1a b9bc 1f81 7f3c 010f 8dbc
000001d0: d3ca 743c fa7c c93c a05f 253c 19df 3d3c
000001e0: 71ad 3c3d 3541 d53c 0e58 d53c 5227 a93c
000001f0: ad78 a93d a4ed 833d bf2b 84bc 438e 053d
00000200: fe6d 943b 2b69 8a3d 7bda 7d3d ff8d 613c
00000210: 593d a23c 0764 123d 2426 113d badc b53b
00000220: da76 353d e336 8c3c 424c 723d 6f9e 0c3d
00000230: 8106 403d 9142 503d f72a e03c 3f31 3d3d
00000240: 4db4 9f3c 433c 84bc 6ce8 fabb 98d3 ddbb
00000250: c932 97bc 031a 203d a392 8fbb dd85 3ebc
00000260: 4f31 8a3d 09ac 443d 5b33 3e3c fb48 08bc
00000270: ffb7 68bc f07f 843c c0b3 513d fa2a 48bc
00000280: d586 0e3d f8a0 853d 7bd5 413d 66d2 da3c
00000290: a4df 463d 2369 553d 6e0e 643d d251 8d3d
000002a0: 06da 1c3d f20a 823d d2a9 823d 36e4 173d
000002b0: a69e 233d c57f 7b3d 345f 893d 3ec9 6b3d
000002c0: 6f43 6cbc b1ec 373d 574b 4f3d 452c 373d
000002d0: b60e 853d 0cc4 02bc c00c 093d b37c 803d
000002e0: b458 803d 9e3a 9b3c 82b8 1c3d 5b70 983d
000002f0: 0c66 853d ade0 383d e834 183c 6454 463d
00000300: 4b15 623d c05e 433d e4eb 923d 464d 323d
00000310: 6a4a 8c3d e9a6 6b3d 4c7e 183d c77f 833d
00000320: 0f33 703d 9b2a 943d 1f91 4c3d 0045 f83c
00000330: 38bf 713c a0bc b23a c9bc d23c e554 fe3c
00000340: e08a 673c fca8 813d a5a3 223d fe41 f33c
00000350: 5092 cf3c 0276 9bbc 8348 683d 87f5 f53c
00000360: c504 623d ac17 383c 6f14 153c bf01 b33b
00000370: b60f 9ebc e918 32bc 16e3 043b a3d2 9d3c
00000380: 4496 2cba 6209 86bc 6489 c4bc 9fc0 513c
00000390: 0961 b1ba 6573 c9bc 5f0a 3e3c bf34 80bc
000003a0: ac4d 833b 392d 1bbc 8db9 fb3c 09fd 6bbc
000003b0: 2ed5 a1bb dcfd fa3c db0c ce3c 046a 513d
000003c0: 91c5 ae3c 74ca 333c 01ae 293d 46b7 a73d
000003d0: b5bd 383d 5539 2f3d f39f 313d 9714 a53c
000003e0: 84fa 1a3d 18e7 143c e121 063d 0cb1 0d3d
000003f0: e236 7c3d 581f 003d 152d 2e3d 3945 923c
