assignment1/Backpropagation-for-MNIST-Digit-Classification-master/Backpropagation-for-MNIST-Digit-Classification-master/weights.npz (npz, 407034 bytes, 2 tensors)

arr_0 f4 [784, 128]
0	0xba4fa3ef	-0.00079208513
1	0x3b3a7ca3	0.0028455637
2	0x3abffa9b	0.001464683
3	0x3a23487c	0.00062287576
4	0xbb0e5341	-0.0021717104
5	0xbb0e55cf	-0.0021718626
6	0xbb36d8be	-0.0027900185
7	0x3b17822c	0.002311836
8	0x3a275949	0.0006383849
9	0x3aac2f00	0.0013136566
10	0xbb465cbb	-0.0030267674
11	0x3b426ddf	0.002966754
12	0x3b098d0c	0.0020988612
13	0xbaee0b55	-0.0018161336
14	0xbb03a5ca	-0.0020087832
15	0xbb02fe7b	-0.0019988108
16	0xbaa1fe2c	-0.0012359074
17	0x3923e414	0.00015629857
18	0xb9e14440	-0.00042966194
19	0xbaacc2ed	-0.0013180651
20	0x3a391ece	0.000706178
21	0xbb152998	-0.0022760388
22	0xbaac00fb	-0.0013122851
23	0xba5d2cfa	-0.0008437183
24	0xb991694d	-0.0002773501
25	0x3aebfcea	0.0018004451
26	0xbaf88669	-0.0018960956
27	0x38bc77c4	8.986847e-05
28	0x3a18f302	0.0005834551
29	0xbb3ba8f5	-0.0028634642
30	0x3a31fd89	0.0006789794
31	0xbb0852cd	-0.0020801306
32	0xbb33f6ae	-0.0027460265
33	0x3b39baee	0.0028340179
34	0x3b40a8c2	0.0029397462
35	0x3aff343c	0.0019470523
36	0xbaa1af78	-0.0012335619
37	0xbb267771	-0.0025400782
38	0x3a9874b9	0.0011631466
39	0xb9c6196c	-0.00037784444
40	0xbb1c6288	-0.002386244
41	0xb7ff6fa3	-3.0450354e-05
42	0xbb40a694	-0.0029396163
43	0x3b295c1b	0.0025842253
44	0xbac79d19	-0.0015229314
45	0x3a867d6d	0.0010260768
46	0xba9bcff2	-0.0011887534
47	0x3904da60	0.00012669852
48	0x399a9d3c	0.00029490318
49	0xbb0264e7	-0.0019896568
50	0x3b424b6c	0.0029647006
51	0x3ae3ad55	0.0017370383
52	0x3b35d8af	0.0027747562
53	0x3b235cf8	0.002492724
54	0x3a22071d	0.00061808695
55	0x3b2e8dd6	0.0026634834
56	0xbb2a43c5	-0.0025980335
57	0xbafb9450	-0.0019193981
58	0xbb3c2a83	-0.0028711862
59	0xba908ac8	-0.0011027688
60	0xba383e2c	-0.00070283073
61	0xbabd366a	-0.0014435772
62	0x3b080497	0.002075469
63	0xba6d13ff	-0.0009043812
64	0xbab547c9	-0.0013830598
65	0x398d53b2	0.00026955974
66	0xbb149216	-0.0022670082
67	0x3afa12b9	0.0019079066
68	0xbb300885	-0.0026860547
69	0x3b49741f	0.003073938
70	0x3ae14984	0.0017188047
71	0xbaf95161	-0.0019021445
72	0xbb4c982c	-0.0031218631
73	0x3b02865c	0.001991651
74	0x3aab2d8f	0.0013059842
75	0x3abd81df	0.001445826
76	0x3ae07b17	0.0017126527
77	0xbb303e1e	-0.0026892493
78	0xba6a3e78	-0.00089357
79	0xbb1eeffc	-0.0024251929
80	0x3b163cb4	0.0022924365
81	0x3a4c1005	0.00077843695
82	0xba8bef4c	-0.0010676174
83	0xbb3494d9	-0.002755454
84	0xba9c6a53	-0.0011933543
85	0xba90a9ed	-0.001103697
86	0x3abe00c5	0.0014496079
87	0x3a63a98b	0.00086846267
88	0x3b20366a	0.0024446496
89	0xb937f0e3	-0.00017541977
90	0xbb1d6567	-0.002401674
91	0x3ab076b4	0.0013463111
92	0x3ad7cdd6	0.0016464542
93	0x39cad4e9	0.00038687073
94	0x3ae03add	0.0017107386
95	0xb8244bc5	-3.9171213e-05
96	0x39167e92	0.00014352266
97	0xb9efd81a	-0.0004574664
98	0xbb445ca3	-0.0029962442
99	0xbb223cfe	-0.0024755592
100	0xbb41e00a	-0.0029583
101	0x3a61c38c	0.00086122076
102	0xba999fa3	-0.0011720549
103	0x3862f4e1	5.411066e-05
104	0x3b28a253	0.0025731518
105	0xbacf7706	-0.0015828318
106	0xba1451be	-0.00056579325
107	0x3ad37910	0.0016134102
108	0xbae06c93	-0.0017122201
109	0xbb2f0735	-0.0026707177
110	0xbaadfbf7	-0.0013273944
111	0xbb0c2c2d	-0.0021388636
112	0x3b31ca82	0.002712876
113	0x3afef98f	0.0019453036
114	0x3a5cc9aa	0.0008422384
115	0x3b19b1ea	0.0023451992
116	0x3afb4b36	0.0019172195
117	0xbb01af2e	-0.0019788253
118	0x3b226cb4	0.002478403
119	0x398239ba	0.00024838542
120	0x3afe6975	0.0019410091
121	0x3b23e2da	0.002500704
122	0xba969aef	-0.0011490266
123	0xbb215826	-0.002461919
124	0xbae12366	-0.0017176687
125	0xb9f14736	-0.00046020158
126	0x3b0394d1	0.0020077715
127	0x3b15415e	0.0022774558
128	0xbb4c00b3	-0.0031128346
129	0x388e4c16	6.78526e-05
130	0xba08b006	-0.0005214218
131	0xbae5f5e3	-0.0017544593
132	0xbb1d48b0	-0.0023999624
133	0xba86604f	-0.0010252091
134	0x3b3741f5	0.0027962897
135	0xba924d75	-0.0011162
136	0x38f8cafe	0.00011863372
137	0x3aa8006b	0.0012817507
138	0xba61b298	-0.00086096814
139	0x3b43342f	0.0029785743
140	0x3b3f576c	0.0029196395
141	0xbacd6784	-0.0015671109
142	0xb791b8dd	-1.737143e-05
143	0xbaa4c6ce	-0.0012571455
144	0xbab20c53	-0.0013583995
145	0xbb3f9df1	-0.0029238428
146	0x3a35552b	0.0006917293
147	0x378de24c	1.6913888e-05
148	0xbb399458	-0.002831718
149	0xbab72c7f	-0.0013975053
150	0x3b28ec69	0.0025775677
151	0xbad78457	-0.0016442639
152	0xbb12ed82	-0.0022419398
153	0xb88ba5f8	-6.6589506e-05
154	0x3b48f127	0.0030661316
155	0xbad57422	-0.0016285221
156	0x3a8e71f1	0.0010867697
157	0x3ad87ea3	0.0016517233
158	0xbad91c01	-0.0016564132
159	0x3abcda58	0.0014408333
160	0xba5ad2ca	-0.000834745
161	0x3a5af87c	0.0008353067
162	0x3a5cff07	0.0008430336
163	0x396cd551	0.0002258618
164	0xbb298566	-0.0025866865
165	0x3b0abbf8	0.0021169167
166	0xba944ebb	-0.0011314967
167	0xbb01b4a4	-0.0019791508
168	0xbb3e0218	-0.0028992947
169	0x3a166e50	0.0005738484
170	0x3a92f001	0.0011210443
171	0xbb480411	-0.0030520002
172	0x38a01d89	7.634896e-05
173	0xbae25453	-0.0017267562
174	0x3a704412	0.00091654167
175	0xbb06bbd1	-0.0020558725
176	0x3a9e0114	0.0012054765
177	0xba3b74f4	-0.0007150911
178	0x3b34b364	0.0027572745
179	0xbb15fa92	-0.0022884947
180	0xba838532	-0.0010034202
181	0xbb1fedb9	-0.0024403168
182	0x3b2fb878	0.0026812833
183	0x3b1c209b	0.0023823145
184	0xbac84eb2	-0.0015282242
185	0x3a8463b7	0.0010100518
186	0x3b0340dd	0.0020027675
187	0x39b6b7eb	0.00034850775
188	0x39444a75	0.00018719754
189	0xbad59f22	-0.0016298036
190	0xbb285b70	-0.0025689267
191	0x3b2459f5	0.0025078033
192	0x3b25ad26	0.0025280206
193	0x3a5c4995	0.00084032986
194	0xba8534a1	-0.0010162779
195	0xba799032	-0.0009520083
196	0x3abafb6f	0.0014265607
197	0x3b244ec8	0.0025071371
198	0x3b202909	0.0024438521
199	0x3ae79a0d	0.0017669812
200	0x3a6b1134	0.0008967102
201	0xbb2c10cc	-0.002625513
202	0xbb0c0105	-0.0021362912
203	0x3b24e7ba	0.0025162534
204	0x3a3024ca	0.0006719349
205	0xbb4b12ea	-0.0030986615
206	0xbb24e500	-0.0025160909
207	0x3a874ced	0.0010322608
208	0xbb4cc8f4	-0.0031247707
209	0xbb0c57f3	-0.0021414727
210	0x39a14fe9	0.0003076785
211	0x3a9ecbe9	0.0012115213
212	0x3a7b8044	0.0009594003
213	0xbae42bfd	-0.0017408129
214	0x3aaf94f8	0.0013395837
215	0xbad96e4b	-0.0016588656
216	0xba907c16	-0.0011023309
217	0x3acbf9cf	0.001556212
218	0x3a77a5c4	0.0009447003
219	0x3b107e81	0.0022048058
220	0x3a826d66	0.0009950816
221	0x39e21b2a	0.00043126318
222	0xbb281eda	-0.0025653155
223	0xba5aef51	-0.0008351701
224	0xbac24c8d	-0.0014823839
225	0xbad3da59	-0.0016163095
226	0x3b43b64e	0.00298633
227	0xba30ed49	-0.00067492254
228	0x3b22366c	0.0024751676
229	0x3a5909f4	0.0008279376
230	0x3af3f61b	0.0018612774
231	0x378ba9cf	1.6649165e-05
232	0x39fe8e9d	0.0004855291
233	0xb84622b2	-4.723919e-05
234	0xbafc310d	-0.0019240692
235	0x3ab81539	0.0014044411
236	0xbab56a23	-0.0013840835
237	0xbb44d17c	-0.003003209
238	0x3a70c2f7	0.00091843255
239	0xbb059923	-0.0020385466
240	0x3b363e54	0.0027808147
241	0x3b3bd11a	0.002865857
242	0x3b2ba756	0.002619227
243	0xba56e44a	-0.000819747
244	0xbb487be3	-0.003059142
245	0x3b31386f	0.0027041694
246	0xb9edb721	-0.00045340604
247	0x3b411517	0.0029462033
248	0x3b3fd3a2	0.002927043
249	0x3b120f87	0.0022287087
250	0xbaaa18d7	-0.0012977374
251	0xba3e2acb	-0.00072543015
252	0x3b114929	0.002216885
253	0xba97800a	-0.0011558544
254	0xbb08c00c	-0.0020866422
255	0x39bc041b	0.00035861213

arr_1 f4 [128, 10]
0	0x3e86a001	0.26293948
1	0x3e2e7491	0.17036654
2	0x3e72daa1	0.23716213
3	0x3e8ae496	0.27127522
4	0x3e674cc3	0.22587876
5	0x3e417178	0.18890941
6	0x3e87160f	0.26384017
7	0x3e48a6cd	0.1959488
8	0x3e596bc4	0.21232516
9	0x3e507b61	0.20359565
10	0x3e137617	0.14400516
11	0x3e1aa8ad	0.15103407
12	0x3e5b602b	0.21423404
13	0x3e306e53	0.17229585
14	0x3e6199bf	0.22031306
15	0x3e03bc36	0.12864766
16	0x3e64fffb	0.22363274
17	0x3e8b7473	0.2723728
18	0x3e4695cf	0.19393085
19	0x3e6dc8ce	0.23221132
20	0x3e731ce4	0.2374149
21	0x3e079e4c	0.13243979
22	0x3e6ce540	0.23134327
23	0x3e5ed727	0.21761762
24	0x3e70b2cb	0.23505704
25	0x3e17dbfe	0.14830014
26	0x3e7a5bee	0.24449131
27	0x3e364120	0.1779828
28	0x3e1f62a9	0.1556498
29	0x3e7117eb	0.2354428
30	0xbc801211	-0.015633615
31	0x3e9777e0	0.29583645
32	0x3d193799	0.037406538
33	0x3e47fb31	0.19529416
34	0x3b1aaf26	0.0023602932
35	0x3e1503c4	0.14552218
36	0x3d137339	0.035998557
37	0x3d14036e	0.036136083
38	0x3dee0c96	0.11623494
39	0x3caf934e	0.021432545
40	0x3e6be6d4	0.23037273
41	0x3e9aaff5	0.3021237
42	0x3e51dafb	0.2049369
43	0x3e773848	0.24142563
44	0x3da3385b	0.07969733
45	0x3e26384b	0.16232412
46	0x3e6eac2c	0.23307866
47	0x3e3622f2	0.17786768
48	0x3e272133	0.16321258
49	0x3e2b5d24	0.16734749
50	0x3e81b3c5	0.25332466
51	0x3ea97a6a	0.33101207
52	0x3e4f7baf	0.20262025
53	0x3e63ac5b	0.22233717
54	0x3e74592d	0.23862143
55	0x3e4435af	0.19161104
56	0x3e86347e	0.26211923
57	0x3e768142	0.24072745
58	0x3e5b255e	0.21400973
59	0x3e47e486	0.19520769
60	0x3e85c24c	0.261248
61	0x3e9dd0d1	0.30823377
62	0x3e505e86	0.20348558
63	0x3e88e2b8	0.26735473
64	0x3dd1cf71	0.102446444
65	0x3e3999ab	0.18125026
66	0x3dd95c5f	0.106133215
67	0x3e5f5f9e	0.21813819
68	0x3e2d2eca	0.1691238
69	0x3df70352	0.1206118
70	0x3e7f5e47	0.24938308
71	0x3e96a292	0.29420906
72	0x3e432c87	0.19059955
73	0x3e85c2b9	0.26125124
74	0x3e596e55	0.21233495
75	0x3e32213b	0.17395489
76	0x3e82077e	0.2539634
77	0x3e845bef	0.2585139
78	0x3e638171	0.22217347
79	0x3e4d5bf7	0.20054613
80	0x3e88a15c	0.26685607
81	0x3eae6815	0.34063783
82	0x3e6bc503	0.23024373
83	0x3e6a0127	0.22852002
84	0x3e69189f	0.22763298
85	0x3e4b4f20	0.19854403
86	0x3e6b14d5	0.22957166
87	0x3e1ab94c	0.15109748
88	0x3e4514dc	0.19246238
89	0x3e5c24ab	0.21498363
90	0x3e0a2778	0.13491619
91	0x3ea6cb61	0.3257704
92	0x3e49f121	0.1972089
93	0x3e2cadf6	0.16863236
94	0x3e61b8b0	0.22043109
95	0x3dce6e26	0.10079603
96	0x3e75551b	0.23958246
97	0x3e926efa	0.28600293
98	0x3e57147b	0.21003906
99	0x3e4d1086	0.20025834
100	0x3e86bc81	0.26315692
101	0x3e9f3648	0.310961
102	0x3e57ab85	0.21061523
103	0x3e5f0910	0.21780801
104	0x3da3d011	0.0799867
105	0x3e178edf	0.14800595
106	0x3e8244e6	0.2544319
107	0x3e2cf0ce	0.16888735
108	0x3e3d1bd5	0.18467648
109	0x3e32c50b	0.17457978
110	0x3e131769	0.14364399
111	0x3eaaa66e	0.333301
112	0x3e6ad3b2	0.22932318
113	0x3e07c6bb	0.13259403
114	0x3e5f96f0	0.21834922
115	0x3dee9b67	0.116507344
116	0x3e708f64	0.23492199
117	0x3e85ee5f	0.26158425
118	0x3e0530e7	0.13006936
119	0x3e5e944d	0.2173626
120	0x3e10f090	0.14154267
121	0x3ea2f20f	0.318253
122	0x3e6c36f1	0.23067833
123	0x3e2922c5	0.1651717
124	0x3e3be29a	0.1834816
125	0x3dbbbc39	0.0916676
126	0x3e6c8add	0.23099847
127	0x3e8dc881	0.27692035
128	0x3e483245	0.19550426
129	0x3e41eff7	0.18939196
130	0x3e873a01	0.2641144
131	0x3ea32d3d	0.31870452
132	0x3e74a402	0.23890689
133	0x3e848140	0.2587986
134	0x3e7420c8	0.2384063
135	0x3e41f296	0.18940195
136	0x3e876143	0.26441392
137	0x3e86125d	0.26185885
138	0x3e5a312d	0.21307822
139	0x3e445b83	0.19175534
140	0x3e87ff53	0.26561984
141	0x3e98ecf5	0.29868284
142	0x3e62a751	0.22134139
143	0x3e70c00e	0.23510763
144	0x3e725b6e	0.2366769
145	0x3e221cff	0.15831374
146	0x3e84a32f	0.2590575
147	0x3e88b256	0.2669856
148	0x3e6be0e2	0.23035005
149	0x3e58c13f	0.21167468
150	0xb9b1c5ab	-0.00033907345
151	0xbbef868c	-0.0073097404
152	0xbc187113	-0.009304303
153	0xbcababd0	-0.02095595
154	0xbc1c113a	-0.0095255915
155	0x3bca83f8	0.0061802827
156	0xbcbd1e25	-0.023085663
157	0xbc8c9f51	-0.017165812
158	0x3ca531fd	0.020165438
159	0xbcba9488	-0.022775903
160	0x3e67fbc4	0.22654635
161	0xbc2f56d3	-0.010701853
162	0x3e64b22a	0.22333589
163	0x3e86d192	0.26331764
164	0x3e7260b8	0.23669708
165	0x3e4f6551	0.20253493
166	0x3e6cd59b	0.23128359
167	0x3e86612a	0.26246005
168	0x3e5ab64d	0.21358605
169	0x3e70c0ed	0.23511095
170	0x3e835b43	0.25655565
171	0x3e9d36a0	0.30705738
172	0x3e52543d	0.20539947
173	0x3e63ddec	0.22252625
174	0x3d94b83a	0.07261701
175	0x3e11c1d2	0.14234093
176	0x3e42682b	0.1898505
177	0x3e8505a6	0.25980872
178	0x3e5866dd	0.21132989
179	0x3e67af34	0.22625428
180	0x3e794adc	0.24344963
181	0x3e9baa46	0.30403346
182	0x3e62b8eb	0.22140853
183	0x3e65a57c	0.22426409
184	0x3d5fc42c	0.054630443
185	0x3dfe8395	0.12427441
186	0x3e7d16bd	0.24715705
187	0x3e8ed688	0.2789805
188	0x3e55eb92	0.20890644
189	0x3dc5365e	0.0962951
190	0x3e671b6b	0.22569053
191	0x3eaf125f	0.34193704
192	0x3e658f22	0.22417882
193	0x3e842331	0.258081
194	0x3e6e183e	0.23251435
195	0x3e5107f8	0.20413196
196	0x3e6f5956	0.23373923
197	0x3e836910	0.25666094
198	0x3e36dbd3	0.17857294
199	0x3e72545f	0.23664998
200	0x3e620f0f	0.22076057
201	0x3e9fe598	0.31229854
202	0x3e5f05ac	0.21779507
203	0x3e8b7923	0.27240857
204	0x3e56d173	0.20978336
205	0x3e430183	0.19043545
206	0x3e8643c0	0.26223564
207	0x3e875191	0.26429418
208	0x3e541038	0.20709312
209	0x3e5d7377	0.21626078
210	0x3e84c37b	0.2593039
211	0xbba317bd	-0.004977195
212	0x3e65e7a4	0.22451645
213	0x3e455525	0.19270761
214	0x3e66f4e0	0.2255435
215	0x3e486392	0.19569233
216	0x3e79bc91	0.24388339
217	0x3e72d720	0.23714876
218	0x3e5ab02d	0.21356268
219	0x3e2c5e95	0.16832955
220	0x3e7e4a02	0.24832919
221	0x3e251f17	0.16125141
222	0x3e5cd48b	0.21565454
223	0x3e2aa3e1	0.16664077
224	0x3d65807b	0.05603073
225	0x3e262f79	0.16229047
226	0x3e6dd9ef	0.23227666
227	0x3e084194	0.13306266
228	0x3e448dc6	0.19194707
229	0x3d3f8f23	0.046767365
230	0x3e1d4b74	0.15360814
231	0xbb79fef5	-0.003814635
232	0x3e40a01e	0.1881108
233	0x3e70f59a	0.2353119
234	0x3e21aa1a	0.15787545
235	0x3e159f36	0.14611515
236	0x3e446f4f	0.19183086
237	0x3df215ed	0.11820588
238	0x3e34d1a7	0.17658101
239	0x3db43465	0.08799056
240	0x3e7c503a	0.24639979
241	0x3ea19a0c	0.3156284
242	0x3e601244	0.21881968
243	0x3e8685dc	0.26274002
244	0x3e6c12f9	0.23054112
245	0x3e4a3222	0.19745687
246	0x3e6dcd81	0.23222925
247	0x3e361f5d	0.17785402
248	0x3e3fb5df	0.18721722
249	0x3e06a499	0.13148727
250	0x3e682c6c	0.22673196
251	0x3eafecb7	0.34360287
252	0x3e659697	0.22420727
253	0x3e79bec2	0.24389175
254	0x3e1b6946	0.15176877
255	0x3e10aa01	0.14127351
